model.pt (torch, 3837 bytes, 6 tensors)

conv1.lin_l.weight f4 [16, 5]
-0.12936911 0.0067093074 -0.4357563 -0.15710402 0.33627677 0.14775267 0.1694425 0.30491418
-0.12190015 -0.15580598 0.49518186 -0.25065967 -0.024176227 0.14080633 -0.10278827 0.029347986
0.26751298 -0.37240267 0.27309155 -0.2712221 0.038772374 0.19058442 -0.20395023 -0.38800147
-0.25419915 0.35588998 0.44684833 -0.087195575 0.33258873 -0.41617188 0.28471476 -0.318345
0.123168096 -0.4601829 0.34860122 -0.37061626 -0.3088794 -0.30363998 0.0016239262 -0.3910336
-0.31507945 0.34087798 0.16619578 0.0988314 -0.19278228 0.41558838 0.035575688 -0.36822113
-0.1987094 -0.16403031 0.24663514 0.5673561 0.015848761 0.059165854 0.14053404 -0.3942335
-0.29728508 -0.111091316 0.29057378 -0.06280732 0.4053817 -0.35947746 0.31545648 0.34569672
0.26083052 -0.020051923 0.46769208 0.21041298 0.12422215 -0.27639407 -0.14333045 0.30495518
0.090992 0.15633084 -0.08946717 -0.36760092 -0.451652 -0.4623479 -0.30262533 -0.24708396
00000000: 5679 04be c0d9 db3b 731b dfbe e0df 20be
00000010: 782c ac3e 7a4c 173e 5682 2d3e b61d 9c3e
00000020: c9a6 f9bd 9a8b 1fbe 7a88 fd3e 7756 80be
00000030: 390d c6bc 892f 103e a882 d2bd 306b f03c
00000040: 76f7 883e 90ab bebe a8d2 8b3e a0dd 8abe
00000050: c8cf 1e3d 9028 433e 54d8 50be 21a8 c6be
00000060: 6426 82be 3637 b63e 4ec9 e43e 9893 b2bd
00000070: 1249 aa3e 7b14 d5be 22c6 913e 1efe a2be
00000080: 8e3f fc3d 189d ebbe dc7b b23e 6ac1 bdbe
00000090: 7125 9ebe b376 9bbe ecd9 d43a 8e35 c8be
000000a0: 1852 a1be 8f87 ae3e 3a2f 2a3e 1e68 ca3d
000000b0: b868 45be 00c8 d43e d0b7 113d 7b87 bcbe
000000c0: 7a7a 4bbe 90f7 27be ec8d 7c3e 403e 113f
000000d0: 43d5 813c e557 723d 28e8 0f3e f9d8 c9be
000000e0: c035 98be d883 e3bd 16c6 943e 20a1 80bd
000000f0: 318e cf3e 6e0d b8be 8383 a13e 29ff b03e
00000100: 948b 853e ee43 a4bc 5675 ef3e 8076 573e
00000110: 2f68 fe3d 8683 8dbe 38c5 12be 1623 9c3e
00000120: 045a ba3d 3115 203e 903a b7bd 3036 bcbe
00000130: ee3e e7be ddb8 ecbe b5f1 9abe 9403 7dbe

conv1.lin_l.bias f4 [16]
0.0844792 -0.12379718 -0.37934008 0.371436 0.35165477 -0.41394344 0.24756764 -0.28049842
0.013401806 -0.1262702 -0.3673726 0.031517345 -0.0129681965 0.33923918 0.043996613 -0.33984265
00000000: 6e03 ad3d 6089 fdbd dd38 c2be dc2c be3e
00000010: 180c b43e 65f0 d3be 5f82 7d3e 7d9d 8fbe
00000020: 4093 5b3c fa4c 01be 4318 bcbe 5518 013d
00000030: 8f78 54bc c2b0 ad3e cb35 343d dbff adbe

conv1.lin_r.weight f4 [16, 5]
-0.2110798 0.19487874 0.3107466 -0.07771558 0.25827712 -0.14192128 -0.10104283 0.21979822
-0.03294176 -0.5645058 0.06469867 -0.16606528 -0.021830034 -0.07624822 0.33544362 -0.030715274
0.29203427 -0.39428243 -0.10950167 -0.17113712 0.4449457 0.04064268 -0.24983028 -0.36986122
0.16838247 -0.14570144 -0.35222033 -0.08958241 0.07612886 -0.27808523 -0.39480656 0.018532634
-0.32565686 -0.6536583 -0.01729001 0.1412408 -0.028944887 0.40065005 0.24901219 0.15574735
-0.6284164 -0.25474545 -0.31500658 0.017018367 -0.08598199 0.39422274 0.20303291 0.100083746
-0.59342706 0.08978361 0.3425312 0.2404457 0.35627583 -0.49528977 0.242607 0.42034045
0.24899983 -0.12801659 0.30005547 0.09313178 0.30237633 -0.12476383 0.341626 -0.4551301
0.37909558 0.08448983 -0.33681533 0.3335276 0.31971592 0.3330632 -0.10768454 -0.29573405
0.104709655 -0.0051441872 -0.13571703 -0.18630573 -0.38235778 0.40950412 0.37788543 -0.012909293
00000000: 4e25 58be 4b8e 473e 2e1a 9f3e 5929 9fbd
00000010: e63c 843e d053 11be 8bef cebd c912 613e
00000020: f0ed 06bd 7483 10bf bc80 843d 040d 2abe
00000030: e6d4 b2bc 0728 9cbd 44bf ab3e 999e fbbc
00000040: 8485 953e 63df c9be 6942 e0bd 923e 2fbe
00000050: eccf e33e f078 263d 82d3 7fbe 735e bdbe
00000060: 746c 2c3e c232 15be 3956 b4be fc76 b7bd
00000070: 73e9 9b3d 3061 8ebe 1624 cabe c0d1 973c
00000080: 7fbc a6be 2656 27bf c7a3 8dbc 6ea1 103e
00000090: d41d edbc 0122 cd3e 0dfd 7e3e 3c7c 1f3e
000000a0: e6df 20bf ff6d 82be 8b48 a1be 1a6a 8b3c
000000b0: 5317 b0bd 90d7 c93e dce7 4f3e b5f8 cc3d
000000c0: d6ea 17bf 78e0 b73d 4060 af3e 6637 763e
000000d0: c969 b63e 9f96 fdbe f86d 783e dd36 d73e
000000e0: d0f9 7e3e c816 03be dfa0 993e e0bb be3d
000000f0: 12d1 9a3e 2e84 ffbd 9ae9 ae3e d006 e9be
00000100: d118 c23e 0109 ad3d 0f73 acbe 21c4 aa3e
00000110: ceb1 a33e 4287 aa3e b689 dcbd 746a 97be
00000120: 0472 d63d 9290 a8bb 68f9 0abe eec6 3ebe
00000130: 66c4 c3be 86aa d13e 337a c13e 8081 53bc

conv2.lin_l.weight f4 [2, 16]
0.17939368 -0.14046863 -0.009484615 -0.15798756 0.13646284 0.22286478 -0.024674147 0.08936175
-0.33547825 0.19316565 -0.033336937 -0.45662478 0.0043255775 0.11182801 0.014193622 0.1846811
0.1818761 -0.19427589 0.052685462 0.13929605 0.09270671 0.24159926 -0.20275939 -0.09717039
-0.015918376 0.086313106 -0.016096741 0.35759345 0.0055330927 -0.026423944 0.033177674 -0.009782766
00000000: fab2 373e 02d7 0fbe 5c65 1bbc 7ec7 21be
00000010: eabc 0b3e aa36 643e 7021 cabc 4b03 b73d
00000020: cec3 abbe 37cd 453e 508c 08bd b9ca e9be
00000030: 93bd 8d3b 1506 e53d 5e8c 683c 0b1d 3d3e
00000040: ba3d 3a3e 42f0 46be b6cc 573d a0a3 0e3e
00000050: 04dd bd3d cc65 773e 28a0 4fbe 4501 c7bd
00000060: 4167 82bc edc4 b03d 50dd 83bc 7d16 b73e
00000070: f24e b53b 0777 d8bc 50e5 073d e547 20bc

conv2.lin_l.bias f4 [2]
-0.2439855 0.120806046
00000000: 56d7 79be 2969 f73d

conv2.lin_r.weight f4 [2, 16]
0.046559297 0.060686685 -0.08454447 -0.045362085 -0.21541768 -0.034598786 0.1391265 0.053665657
0.059741683 0.1094812 -0.035521712 0.33151728 -0.14430991 0.20202179 0.20070857 0.015624475
-0.00049624 0.036263265 -0.082340345 0.05387616 -0.19885856 -0.010580335 0.052555252 0.027493916
-0.011167911 0.1220129 -0.024676176 -0.11222665 -0.11586376 0.25356567 0.13451195 0.020437011
00000000: f6b4 3e3d 9a92 783d a725 adbd 98cd 39bd
00000010: 7496 5cbe 75b7 0dbd 2d77 0e3e 85d0 5b3d
00000020: b2b3 743d ae37 e03d 377f 11bd a2bc a93e
00000030: fac5 13be cdde 4e3e 8c86 4d3e ccfd 7f3c
00000040: 1a16 02ba ca88 143d 0ea2 a8bd 40ad 5c3d
00000050: 94a1 4bbe 2459 2dbc 2d44 573d ec3a e13c
00000060: 9df9 36bc e6e1 f93d b125 cabc 16d7 e5bd
00000070: fb49 edbd 5cd3 813e 80bd 093e 856b a73c
