model.pt (torch, 3837 bytes, 6 tensors)

conv1.lin_l.weight f4 [16, 5]
000000 a4 cf ef bd f0 c0 4d 3e c0 ec 3c bd 6a a3 96 be
       -0.11709526 0.20093131 -0.04612422 -0.2942155
000010 a4 44 98 3e 30 c8 80 3e 14 9b 86 be b0 0d ff bd
       0.2973987 0.2515273 -0.2629019 -0.124537826
000020 7a e9 b8 3e 9a 7c 82 3e 7d ef 0c 3f bf 61 9e be
       0.36115628 0.25485688 0.5505293 -0.3093395
000030 3b 16 5b 3e e2 6d b2 3c d0 94 96 3e a1 f2 93 be
       0.21395199 0.021780912 0.2941041 -0.2889605
000040 65 32 05 3e 1d ba db 3e 72 b3 8d bd cc d5 d3 be
       0.13007505 0.4291543 -0.06918992 -0.41374052
000050 1f db 0f 3e 18 ae a3 bd e9 5e 79 3e eb 51 d8 3e
       0.14048432 -0.0799219 0.24352612 0.42249998
000060 90 58 b0 3e 8e 3b e1 be 40 df cd bb f6 41 1d be
       0.34442568 -0.4399075 -0.006282717 -0.15357193
000070 5c b7 69 3e ec 70 4c 3e 95 57 54 be e4 8a 91 3e
       0.22823852 0.19964951 -0.20736535 0.28426278
000080 64 28 d6 be 50 1b aa bd e0 c5 4e 3d 3c ac 72 3e
       -0.4182769 -0.08305991 0.050481677 0.23698515
000090 95 00 05 bd 39 12 c3 3d 45 65 6e 3e 9c 21 2a 3e
       -0.03247126 0.0952496 0.23280819 0.16614383
0000a0 6f 6b 9e be cb 07 90 be a9 55 d8 3e f6 57 74 3e
       -0.3094134 -0.28130946 0.42252854 0.2386168
0000b0 08 4f 28 be 9f b1 a1 be 38 af 03 bf 0c ff 2a 3c
       -0.16436398 -0.31580827 -0.5143924 0.0104367845
0000c0 98 0b 01 bf ae 38 84 3e c0 fd a3 bd 5a 9e 0f bf
       -0.50408316 0.25824493 -0.08007383 -0.56101
0000d0 f8 2a 81 3e a8 ef 50 be cc 1f b3 3e ce 21 aa 3c
       0.25228095 -0.20403922 0.34985197 0.020768072
0000e0 9c 8c 56 bd 1f 37 c4 3c 2f 54 17 3e c4 58 d0 3e
       -0.05238019 0.023952065 0.14778207 0.40692723
0000f0 18 49 81 3d 31 33 cb be c0 fa a0 bc 48 7d 8a bd
       0.0631277 -0.39687493 -0.019650817 -0.06762177
000100 ad a4 cc be 60 38 e1 3e 39 d2 ba be a0 b9 4c bc
       -0.39969388 0.43988323 -0.36488512 -0.012495428
000110 da fa 00 be 10 8c b8 3d 1c dc 2e 3e 0f ec 72 3d
       -0.12595692 0.0901109 0.17076153 0.059307154
000120 95 ca 64 3e f7 bf 95 3d 24 6f 02 3e ce 3b 57 be
       0.22342904 0.07312005 0.1273771 -0.21018907
000130 99 fc 02 3e 32 4e 61 be 61 2c 07 3e b6 ca 00 be
       0.12791671 -0.22002485 0.13200523 -0.12577328

conv1.lin_l.bias f4 [16]
000000 c5 38 d6 be c7 57 22 3f 76 42 01 bf b9 09 1f be
       -0.41840187 0.6341519 -0.50492036 -0.15531053
000010 ed 61 04 3c c0 ab 4e 3e 4a 34 12 be 04 52 d9 3c
       0.008079988 0.20182705 -0.14277759 0.026528366
000020 d2 92 2a 3e 41 f4 33 3e fc 67 47 be 47 d3 89 bd
       0.1665757 0.17573644 -0.1947326 -0.06729751
000030 d5 49 13 be 50 ea 08 be df ac d2 be 8a ca 0e bf
       -0.14383633 -0.13370633 -0.41147515 -0.557778

conv1.lin_r.weight f4 [16, 5]
000000 48 d5 0c be 54 0f e9 bd a5 d2 de be 06 b7 4e be
       -0.13753235 -0.11379877 -0.43520084 -0.20187005
000010 f9 09 a5 be 42 96 81 3e 28 03 2e 3e ed 9f 77 be
       -0.3223417 0.2530995 0.16993392 -0.241821
000020 a4 bc bc 3e 18 d4 4b 3e d5 af 1b be 24 ce 06 bf
       0.3686267 0.19905126 -0.15203793 -0.52658296
000030 0b e7 89 3d 54 bd 75 bc 7c 2d 74 3e 4d fd fe be
       0.06733521 -0.014998753 0.23845476 -0.49802628
000040 8b 78 13 3e fb fa e9 be 2e 36 95 3e 7d 6f 0d bf
       0.14401452 -0.45699295 0.29142898 -0.5524824
000050 4e 8b 09 bf 81 76 d6 be 5f ad d8 bb 0c f1 89 be
       -0.5372819 -0.41887286 -0.0066124643 -0.26941717
000060 d8 44 0f bf e9 84 ba be 90 46 bf 3e f8 57 f7 bd
       -0.5596442 -0.36429527 0.37358522 -0.120773256
000070 80 c0 25 3c fc 8f b9 be aa 3c 0a 3f 30 94 fc be
       0.010116696 -0.36242664 0.53998816 -0.49331808
000080 3f a6 53 bd d8 d9 47 3e ec f1 a0 3e 18 80 c8 3d
       -0.051672217 0.19516695 0.31434572 0.09790057
000090 a4 8f 1f 3e 6b e3 63 be 1a 33 cb be a7 a0 3b bf
       0.15582138 -0.22254722 -0.39687425 -0.7329201
0000a0 f3 b6 bc be f4 d1 a2 bd 3f 7b d7 be 90 ea 80 be
       -0.3685833 -0.07950202 -0.42086217 -0.25178957
0000b0 6f 84 14 bf 5c fc d0 3e c7 45 36 3e 80 61 92 3e
       -0.5801458 0.40817535 0.17800055 0.28590012
0000c0 b1 3a ea be a3 97 bf 3e bd c4 45 be f0 1f bd be
       -0.45747903 0.37420377 -0.19313331 -0.3693843
0000d0 7c ed 97 be 61 2f ac 3d fe 1c ee be d8 4a 9d be
       -0.29673374 0.08407474 -0.46506494 -0.30721164
0000e0 64 fe ff be 67 44 fa bd 52 ee b9 3d 3b 3c 99 bd
       -0.49998772 -0.12220078 0.09078659 -0.07482191
0000f0 5e db 18 3e 00 7f ab 3d 7c 01 2a be 0b 87 3d 3e
       0.14927432 0.08373833 -0.16602129 0.18508546
000100 e2 81 8a be 0f e5 1e be 5a 36 aa be a1 e0 d7 be
       -0.27052218 -0.15517066 -0.33244592 -0.42163566
000110 ca 2a 1d 3f 80 85 97 bc cb 1a 0a 3c 1e a0 d3 be
       0.61393416 -0.018496275 0.0084292395 -0.41333097
000120 5d 9d da be 93 f2 9c bd 7b 37 cd be ac e8 a6 be
       -0.42698184 -0.07663455 -0.4008139 -0.3259939
000130 09 69 9e 3e 89 83 19 3e fa 7e 63 3e 10 d9 d6 3d
       0.3093951 0.14991583 0.22216406 0.1049062

conv2.lin_l.weight f4 [2, 16]
000000 dc 3d 9a 3d d5 14 99 be cc 10 26 be 9b ef 9c be
       0.0753133 -0.29898706 -0.16217345 -0.30651554
000010 0c 75 04 be 80 b0 d3 bb f6 fb 83 be 0c 11 e7 bd
       -0.12935275 -0.0064602494 -0.25778168 -0.11282548
000020 00 de d9 3a 15 62 e5 bd ca 7c b8 bd 25 4a 70 be
       0.0016621947 -0.11200348 -0.090081766 -0.23465784
000030 96 d7 38 be 9d 97 0b be ac 7a 84 be 54 d6 f3 3d
       -0.1805099 -0.13632055 -0.2587484 0.11906114
000040 2e c9 15 be ec d4 db 3d 55 a8 5c 3d af ec 73 3e
       -0.14627525 0.10733971 0.05387147 0.23820756
000050 97 9b 49 bd 62 1f 5f be c7 d4 ce 3e 60 11 5e 3e
       -0.049220648 -0.21789315 0.4039671 0.21686316
000060 8e 36 02 be 39 2c f7 bd 81 a5 af 3d e6 6d f7 3c
       -0.12716123 -0.12068982 0.08576489 0.03020377
000070 d5 b7 b7 3e d9 75 b1 3e 9f 8e 15 3e e8 b9 96 3b
       0.3588244 0.34660223 0.14605187 0.0045997985

conv2.lin_l.bias f4 [2]
000000 f2 f4 17 3e 6f 6d 43 3e
       0.14839533 0.19084714

conv2.lin_r.weight f4 [2, 16]
000000 2e 9e 42 3e 0a 47 9f 3e 00 36 8a bd e2 77 82 3e
       0.19005653 0.31108886 -0.06748581 0.25482088
000010 8c 16 90 bb 68 a2 68 bd f9 ca 0b 3e d5 0d 9c 3c
       -0.004397219 -0.056795508 0.13651647 0.019049564
000020 94 73 4e 3e 76 2a ed bd aa a5 82 3e a3 17 ff bd
       0.20161277 -0.115803644 0.25517017 -0.1245568
000030 cc ef f1 3d a9 4a 4e 3e 96 fc 01 3e b9 79 1c 3c
       0.11813316 0.20145668 0.1269401 0.009550505
000040 70 49 31 3e 42 0f 9a bd e2 f6 20 bc 54 29 0d be
       0.1731317 -0.075224414 -0.009824486 -0.13785297
000050 9c 9c 5f be 28 ec a0 3d 3e b3 37 bd 61 cf 3d be
       -0.21837085 0.07857543 -0.044848673 -0.1853614
000060 28 c8 74 be 58 8d df bd e4 11 0c 3e f2 42 97 be
       -0.23904479 -0.10915631 0.136787 -0.29543263
000070 dd 07 ce bc ab 67 c4 be 68 4a 0b 3d 99 1d 32 3c
       -0.025150234 -0.38360342 0.034006506 0.010871314
